embed_paraphrase-multilingual-mpnet-base-v2_umap_15_10_hdbscan_80_10_safetensors/ctfidf.safetensors (safetensors, 935956 bytes, 4 tensors)

data f8 [60349]
0	0x3fb36f3a36b675f3	0.0759159453941363
1	0x3fc18584e2b52383	0.13688717908578604
2	0x3fbf894d33168735	0.12318880555406227
3	0x3fb3d13fe42659b0	0.07741164512694954
4	0x3fd01cbb9ed731c3	0.2517537165811314
5	0x3fb844d845d3985e	0.0948004885172806
6	0x3fb2cf6f05463ec7	0.07347768667954845
7	0x3fbfe2c6f8fa0246	0.1245540960171719
8	0x3fb58a10fbba6e9b	0.08413797517499193
9	0x3fb844d845d3985e	0.0948004885172806
10	0x3faee0e5a07df984	0.06030957779056492
11	0x3fb844d845d3985e	0.0948004885172806
12	0x3fb24fdb043c570f	0.07153099873934486
13	0x3fbfe2c6f8fa0246	0.1245540960171719
14	0x3fb18ab476d19df3	0.06852271939134606
15	0x3fb844d845d3985e	0.0948004885172806
16	0x3fb844d845d3985e	0.0948004885172806
17	0x3fb4d31a1751fbba	0.08134615964261985
18	0x3fb4d31a1751fbba	0.08134615964261985
19	0x3fb68bf483e0d2c3	0.0880730459183026
20	0x3fb24fdb043c570f	0.07153099873934486
21	0x3fb4d31a1751fbba	0.08134615964261985
22	0x3fb844d845d3985e	0.0948004885172806
23	0x3fb3d13fe42659b0	0.07741164512694954
24	0x3fb844d845d3985e	0.0948004885172806
25	0x3fba9a0d365da16b	0.10391314103401832
26	0x3fb58a10fbba6e9b	0.08413797517499193
27	0x3fb844d845d3985e	0.0948004885172806
28	0x3fb4d31a1751fbba	0.08134615964261985
29	0x3fbbbc289fd0f9d8	0.10833982373967588
30	0x3fb368fbc488e533	0.07582067058765034
31	0x3fc2a7524fc22bc8	0.1457312478490549
32	0x3fb445311e0206ae	0.07918078405966852
33	0x3fb0f47a840cbe8b	0.06623044704314844
34	0x3fb37446b482ae75	0.07599298388475424
35	0x3fb574763baaf3ae	0.0838083167718213
36	0x3fb0b862a7a18b23	0.06531349747232844
37	0x3fb68bf483e0d2c3	0.0880730459183026
38	0x3fb4d31a1751fbba	0.08134615964261985
39	0x3fb116d5e2f3a43c	0.06675469199002831
40	0x3fbc4a4a5e56313f	0.11050858309881038
41	0x3fad35d7449c1ee3	0.05705139839670694
42	0x3fb176c0662cd8ab	0.06821825499068505
43	0x3fb68bf483e0d2c3	0.0880730459183026
44	0x3fae37605a867a59	0.05901623826070041
45	0x3fb58a10fbba6e9b	0.08413797517499193
46	0x3fafe0c92335ab76	0.062261853740742376
47	0x3fb58a10fbba6e9b	0.08413797517499193
48	0x3fa76c3baeee58ee	0.04574762831104971
49	0x3fb0d3e2def0c761	0.0657331270492967
50	0x3fb5bc509ac11e72	0.0849047067468918
51	0x3fb9e5a0fddecf75	0.10116010854727427
52	0x3fb1b68e6ef23d03	0.06919183930061838
53	0x3fb731d80bcea120	0.0906043080163994
54	0x3fb58a10fbba6e9b	0.08413797517499193
55	0x3fb29ae5cdfd5891	0.07267605093997732
56	0x3fc1ac91ba25ccb5	0.13807889546624144
57	0x3fb1db729a34d3a7	0.06975475563815668
58	0x3fba9a0d365da16b	0.10391314103401832
59	0x3fab9652e18a1fcb	0.05388125422638231
60	0x3fb65e9d12dd1bca	0.08738118849315338
61	0x3fb844d845d3985e	0.0948004885172806
62	0x3fb58bc73baccde9	0.0841640968981704
63	0x3fbcaaa0218e2fdd	0.1119785386965186
64	0x3fb445311e0206ae	0.07918078405966852
65	0x3fb18ab476d19df3	0.06852271939134606
66	0x3fb69dfd13290564	0.08834821431903134
67	0x3fc89c9b2a15d700	0.19227923922488088
68	0x3fbe1b157eeeeb6b	0.117600768556185
69	0x3fc2cf6f05463ec7	0.1469553733590969
70	0x3fb0d3e2def0c761	0.0657331270492967
71	0x3fab9652e18a1fcb	0.05388125422638231
72	0x3fb68bf483e0d2c3	0.0880730459183026
73	0x3fb85e521173e0ca	0.09518921781625803
74	0x3fb18ab476d19df3	0.06852271939134606
75	0x3fafcfb55e12cdce	0.06213156483991221
76	0x3fc629aea5aca70f	0.17314704026767244
77	0x3fb0b4e2da697731	0.06526010353396995
78	0x3fb3e32f87d8f9f3	0.07768532816496769
79	0x3fb58bc73baccde9	0.0841640968981704
80	0x3fb68bf483e0d2c3	0.0880730459183026
81	0x3fbc06a889e8b618	0.10947659842414514
82	0x3fb24fdb043c570f	0.07153099873934486
83	0x3fb6bea76367f8a6	0.08884664704234754
84	0x3fa98899f2345b15	0.049870310607891856
85	0x3fbc76051ab675a3	0.11117584135214158
86	0x3fc0543d79c1ab20	0.12757080502645923
87	0x3fb13b28a619ad92	0.06730894141371938
88	0x3fb844d845d3985e	0.0948004885172806
89	0x3fb1e5a961ccc60f	0.06991060865109254
90	0x3fb32a083d2c6622	0.07486011022083308
91	0x3fb18ab476d19df3	0.06852271939134606
92	0x3fb3e32f87d8f9f3	0.07768532816496769
93	0x3fafcfb55e12cdce	0.06213156483991221
94	0x3fb4f4c8c64ac2cf	0.08186011162866723
95	0x3fb18ab476d19df3	0.06852271939134606
96	0x3fbb03f5898525f2	0.10552916152405326
97	0x3fb9a4fd61c92014	0.10017379414887301
98	0x3fb7013b5d164026	0.08986254713659089
99	0x3fb3d13fe42659b0	0.07741164512694954
100	0x3fb844d845d3985e	0.0948004885172806
101	0x3fc12990218949bd	0.13408090245736828
102	0x3fb844d845d3985e	0.0948004885172806
103	0x3fd35f2a9bd22ad9	0.3026834985436558
104	0x3fb626116a9fc5a4	0.08651837208869623
105	0x3fb3d13fe42659b0	0.07741164512694954
106	0x3fc4ea5f2ed8c7c0	0.16340245997849756
107	0x3fc8880ebd1667ce	0.19165214760579236
108	0x3fb6a6bc6ccf6ed7	0.08848168999196147
109	0x3fb095a349bcf63d	0.0647832922959077
110	0x3fb3d13fe42659b0	0.07741164512694954
111	0x3fb58a10fbba6e9b	0.08413797517499193
112	0x3fb844d845d3985e	0.0948004885172806
113	0x3fb844d845d3985e	0.0948004885172806
114	0x3fb2cf6f05463ec7	0.07347768667954845
115	0x3fb837fc0b09386a	0.09460425633844385
116	0x3fb844d845d3985e	0.0948004885172806
117	0x3fbbe32993cbb500	0.10893497331899837
118	0x3fb4d31a1751fbba	0.08134615964261985
119	0x3fb24fdb043c570f	0.07153099873934486
120	0x3fb4d31a1751fbba	0.08134615964261985
121	0x3fb58a10fbba6e9b	0.08413797517499193
122	0x3fc2f115f23e319a	0.14798235252636688
123	0x3fbe787d08b83497	0.11902600729827593
124	0x3fb844d845d3985e	0.0948004885172806
125	0x3fb844d845d3985e	0.0948004885172806
126	0x3fb0b4e2da697731	0.06526010353396995
127	0x3fb0d3e2def0c761	0.0657331270492967
128	0x3fb68bf483e0d2c3	0.0880730459183026
129	0x3fc0600d9bd059b4	0.12793130977725087
130	0x3fb31a52544f83af	0.07462038572658856
131	0x3fc104b1eda431e9	0.13295578101714448
132	0x3fb0d3e2def0c761	0.0657331270492967
133	0x3fb445311e0206ae	0.07918078405966852
134	0x3fbe1808bc4dd461	0.11755423161760482
135	0x3fb5a3b7c6933a5d	0.08452938650155191
136	0x3fb626116a9fc5a4	0.08651837208869623
137	0x3fb31a52544f83af	0.07462038572658856
138	0x3faebd2129ae6717	0.0600366938953824
139	0x3facea753e83d19b	0.05647627246972605
140	0x3fb2188ac90bc871	0.07068698318815493
141	0x3fbe1b157eeeeb6b	0.117600768556185
142	0x3fb4d31a1751fbba	0.08134615964261985
143	0x3fb68bf483e0d2c3	0.0880730459183026
144	0x3fad86006becb2ad	0.0576629764312647
145	0x3fba9a0d365da16b	0.10391314103401832
146	0x3fb28c72af280d76	0.07245556618004464
147	0x3faffc47c61e26c0	0.0624716214507095
148	0x3fb36f3a36b675f3	0.0759159453941363
149	0x3fbcaaa0218e2fdd	0.1119785386965186
150	0x3fadf972ecacb792	0.05854376925559203
151	0x3fb68bf483e0d2c3	0.0880730459183026
152	0x3fb1e5a961ccc60f	0.06991060865109254
153	0x3fcb4faf2a9e59d0	0.21336927014335894
154	0x3fb844d845d3985e	0.0948004885172806
155	0x3facba96a8e84814	0.05611105739457414
156	0x3fb24fdb043c570f	0.07153099873934486
157	0x3fb3d13fe42659b0	0.07741164512694954
158	0x3fb68bf483e0d2c3	0.0880730459183026
159	0x3fb36f3a36b675f3	0.0759159453941363
160	0x3fb68bf483e0d2c3	0.0880730459183026
161	0x3fb68bf483e0d2c3	0.0880730459183026
162	0x3fb844d845d3985e	0.0948004885172806
163	0x3fb844d845d3985e	0.0948004885172806
164	0x3fb445311e0206ae	0.07918078405966852
165	0x3fb116d5e2f3a43c	0.06675469199002831
166	0x3fb0b4e2da697731	0.06526010353396995
167	0x3fb4d31a1751fbba	0.08134615964261985
168	0x3fb0600d9bd059b4	0.06396565488862543
169	0x3fb2cf6f05463ec7	0.07347768667954845
170	0x3fadbe68ddac43a6	0.058093335208588656
171	0x3fb844d845d3985e	0.0948004885172806
172	0x3fcd16fddd8c9a33	0.227264149835905
173	0x3fc66d6d5155eede	0.17521444770306166
174	0x3fc4b272d70df779	0.16169581890784082
175	0x3fae1808bc4dd461	0.05877711580880241
176	0x3fb61e3216e9df19	0.0863982492390928
177	0x3fbc9c6ed22b2b86	0.11176197653837336
178	0x3faba91978e1698c	0.054024501806185204
179	0x3fc013aa26c42a82	0.1256001176155515
180	0x3fb07b17000e7c41	0.0643782019746917
181	0x3fbb566ebffbbb76	0.1067876070699024
182	0x3fadbe68ddac43a6	0.058093335208588656
183	0x3fad1c35fa4227f6	0.056855856703876315
184	0x3fb7fa5d19913e63	0.09366399645045358
185	0x3fb31a52544f83af	0.07462038572658856
186	0x3fad0316fd6ae708	0.056664198336376315
187	0x3fb18ab476d19df3	0.06852271939134606
188	0x3fb0975485b77284	0.06480911507191861
189	0x3fc11fc4d74279e9	0.13378201018072325
190	0x3fb72438401a997d	0.09039641919171078
191	0x3fac4a4a5e56313f	0.05525429154940519
192	0x3fb844d845d3985e	0.0948004885172806
193	0x3fb844d845d3985e	0.0948004885172806
194	0x3fc4d31a1751fbba	0.1626923192852397
195	0x3fac200618f4a38f	0.05493182234415094
196	0x3fadf972ecacb792	0.05854376925559203
197	0x3fb58a10fbba6e9b	0.08413797517499193
198	0x3fb6e08dd4c47122	0.08936392254367267
199	0x3fb4d31a1751fbba	0.08134615964261985
200	0x3fb445311e0206ae	0.07918078405966852
201	0x3fb4d31a1751fbba	0.08134615964261985
202	0x3fab2b2e9641fc06	0.05306382736397812
203	0x3fb844d845d3985e	0.0948004885172806
204	0x3fb844d845d3985e	0.0948004885172806
205	0x3fb844d845d3985e	0.0948004885172806
206	0x3fb844d845d3985e	0.0948004885172806
207	0x3fb94f72b2da9f7b	0.0988685309081329
208	0x3fb0153cef7d2255	0.06282406660933167
209	0x3fbc06a889e8b618	0.10947659842414514
210	0x3fb9c292befdb740	0.1006252018248377
211	0x3fc01cca5673cd98	0.12587861272150458
212	0x3fac34fafded3a7f	0.05509170865717738
213	0x3fb844d845d3985e	0.0948004885172806
214	0x3fb36f3a36b675f3	0.0759159453941363
215	0x3fb445311e0206ae	0.07918078405966852
216	0x3fc549bb38e71773	0.16631260183765625
217	0x3fb892c777dbc139	0.0959896724341477
218	0x3fc0ce470e2daf32	0.1312950915556655
219	0x3fb844d845d3985e	0.0948004885172806
220	0x3fc33f60e6d87dc5	0.1503716590095633
221	0x3fb445311e0206ae	0.07918078405966852
222	0x3fb703c934fdf2a2	0.08990151923894499
223	0x3fb68bf483e0d2c3	0.0880730459183026
224	0x3fb24fdb043c570f	0.07153099873934486
225	0x3fb0600d9bd059b4	0.06396565488862543
226	0x3fb0036eb94e2d6d	0.06255237602288384
227	0x3fb18ab476d19df3	0.06852271939134606
228	0x3fb68bf483e0d2c3	0.0880730459183026
229	0x3fb68bf483e0d2c3	0.0880730459183026
230	0x3fc194c9951702b8	0.1373531320550876
231	0x3fa8459047e2122e	0.04740572812537312
232	0x3fb58a10fbba6e9b	0.08413797517499193
233	0x3fb0600d9bd059b4	0.06396565488862543
234	0x3fcc1dde92b2c417	0.21966154253962664
235	0x3fb844d845d3985e	0.0948004885172806
236	0x3fb495824278f452	0.08040632365096315
237	0x3fb36f3a36b675f3	0.0759159453941363
238	0x3fbb3854f41df0ef	0.1063283058155695
239	0x3fb844d845d3985e	0.0948004885172806
240	0x3fb0d3e2def0c761	0.0657331270492967
241	0x3fae9a581a22c16a	0.05977130240478597
242	0x3fb51cd4b56ac978	0.08247117451791108
243	0x3fb1ed99edc28002	0.07003175787622243
244	0x3fad1c35fa4227f6	0.056855856703876315
245	0x3fb844d845d3985e	0.0948004885172806
246	0x3fbb7196ff7eaa1c	0.10720199334779362
247	0x3fb68bf483e0d2c3	0.0880730459183026
248	0x3fb2cf6f05463ec7	0.07347768667954845
249	0x3fb4d31a1751fbba	0.08134615964261985
250	0x3fb60a6fdbe2984e	0.08609675520219293
251	0x3fbe60213df8bbbf	0.11865432513216854
252	0x3fb8bcff0ace8b88	0.09663385404432578
253	0x3faba91978e1698c	0.054024501806185204
254	0x3fb99767669185f5	0.09996649030792766
255	0x3fb935cdcd11cebf	0.09847723251896932

diag f8 [26416]
0	0x402388939743234f	9.766751028962657
1	0x401fe6af50bdefe7	7.975278150170175
2	0x402388939743234f	9.766751028962657
3	0x402388939743234f	9.766751028962657
4	0x402225b6ead29039	9.073661173060929
5	0x402225b6ead29039	9.073661173060929
6	0x402225b6ead29039	9.073661173060929
7	0x402388939743234f	9.766751028962657
8	0x40167225fa2aad56	5.61147299657326
9	0x402388939743234f	9.766751028962657
10	0x402225b6ead29039	9.073661173060929
11	0x402388939743234f	9.766751028962657
12	0x402156254ecf6a2b	8.668253386325054
13	0x402388939743234f	9.766751028962657
14	0x402388939743234f	9.766751028962657
15	0x4019e3bdc0b9d866	6.472403537123773
16	0x401d214110e81ae4	7.282474769751136
17	0x402225b6ead29039	9.073661173060929
18	0x402225b6ead29039	9.073661173060929
19	0x401ccf595e4aa7cf	7.202489350611315
20	0x402388939743234f	9.766751028962657
21	0x402388939743234f	9.766751028962657
22	0x402388939743234f	9.766751028962657
23	0x402388939743234f	9.766751028962657
24	0x402388939743234f	9.766751028962657
25	0x402388939743234f	9.766751028962657
26	0x401fe6af50bdefe7	7.975278150170175
27	0x402388939743234f	9.766751028962657
28	0x402050a965985c20	8.157542395447365
29	0x402388939743234f	9.766751028962657
30	0x402388939743234f	9.766751028962657
31	0x402388939743234f	9.766751028962657
32	0x402388939743234f	9.766751028962657
33	0x402388939743234f	9.766751028962657
34	0x402156254ecf6a2b	8.668253386325054
35	0x402388939743234f	9.766751028962657
36	0x402388939743234f	9.766751028962657
37	0x4015ebf0c0bb5df8	5.480410586772898
38	0x400679e64452c605	2.8095212304840538
39	0x402388939743234f	9.766751028962657
40	0x402388939743234f	9.766751028962657
41	0x402388939743234f	9.766751028962657
42	0x402156254ecf6a2b	8.668253386325054
43	0x402156254ecf6a2b	8.668253386325054
44	0x401ddbd587ab0cf0	7.464681739630791
45	0x402156254ecf6a2b	8.668253386325054
46	0x402388939743234f	9.766751028962657
47	0x402388939743234f	9.766751028962657
48	0x402388939743234f	9.766751028962657
49	0x402225b6ead29039	9.073661173060929
50	0x402156254ecf6a2b	8.668253386325054
51	0x402225b6ead29039	9.073661173060929
52	0x402388939743234f	9.766751028962657
53	0x402388939743234f	9.766751028962657
54	0x402388939743234f	9.766751028962657
55	0x402388939743234f	9.766751028962657
56	0x402388939743234f	9.766751028962657
57	0x402388939743234f	9.766751028962657
58	0x4020c2e1c18c6102	8.380628631960011
59	0x4020c2e1c18c6102	8.380628631960011
60	0x402388939743234f	9.766751028962657
61	0x402388939743234f	9.766751028962657
62	0x402388939743234f	9.766751028962657
63	0x402388939743234f	9.766751028962657
64	0x402156254ecf6a2b	8.668253386325054
65	0x4020c2e1c18c6102	8.380628631960011
66	0x402225b6ead29039	9.073661173060929
67	0x401b8268ea37a398	6.877353343625963
68	0x401f48e4a99fd0a2	7.82118477857526
69	0x401956827c33456b	6.334482136372894
70	0x402388939743234f	9.766751028962657
71	0x402388939743234f	9.766751028962657
72	0x4020c2e1c18c6102	8.380628631960011
73	0x4020c2e1c18c6102	8.380628631960011
74	0x402225b6ead29039	9.073661173060929
75	0x402388939743234f	9.766751028962657
76	0x402156254ecf6a2b	8.668253386325054
77	0x402388939743234f	9.766751028962657
78	0x402388939743234f	9.766751028962657
79	0x402388939743234f	9.766751028962657
80	0x402388939743234f	9.766751028962657
81	0x401ddbd587ab0cf0	7.464681739630791
82	0x4020c2e1c18c6102	8.380628631960011
83	0x402050a965985c20	8.157542395447365
84	0x402156254ecf6a2b	8.668253386325054
85	0x402156254ecf6a2b	8.668253386325054
86	0x402388939743234f	9.766751028962657
87	0x402388939743234f	9.766751028962657
88	0x402388939743234f	9.766751028962657
89	0x402388939743234f	9.766751028962657
90	0x402225b6ead29039	9.073661173060929
91	0x402388939743234f	9.766751028962657
92	0x402388939743234f	9.766751028962657
93	0x402225b6ead29039	9.073661173060929
94	0x402388939743234f	9.766751028962657
95	0x402388939743234f	9.766751028962657
96	0x402388939743234f	9.766751028962657
97	0x402388939743234f	9.766751028962657
98	0x4020c2e1c18c6102	8.380628631960011
99	0x402388939743234f	9.766751028962657
100	0x402388939743234f	9.766751028962657
101	0x401425e5d59ef98c	5.037009561374713
102	0x402156254ecf6a2b	8.668253386325054
103	0x402156254ecf6a2b	8.668253386325054
104	0x402388939743234f	9.766751028962657
105	0x4020c2e1c18c6102	8.380628631960011
106	0x402050a965985c20	8.157542395447365
107	0x402050a965985c20	8.157542395447365
108	0x402388939743234f	9.766751028962657
109	0x402225b6ead29039	9.073661173060929
110	0x4016d69998212f40	5.709570290589738
111	0x402388939743234f	9.766751028962657
112	0x402388939743234f	9.766751028962657
113	0x401fe6af50bdefe7	7.975278150170175
114	0x402388939743234f	9.766751028962657
115	0x402156254ecf6a2b	8.668253386325054
116	0x401fe6af50bdefe7	7.975278150170175
117	0x402156254ecf6a2b	8.668253386325054
118	0x402225b6ead29039	9.073661173060929
119	0x402388939743234f	9.766751028962657
120	0x402050a965985c20	8.157542395447365
121	0x402388939743234f	9.766751028962657
122	0x402156254ecf6a2b	8.668253386325054
123	0x401ddbd587ab0cf0	7.464681739630791
124	0x402388939743234f	9.766751028962657
125	0x402225b6ead29039	9.073661173060929
126	0x402388939743234f	9.766751028962657
127	0x402388939743234f	9.766751028962657
128	0x402388939743234f	9.766751028962657
129	0x401c83856cd0b285	7.128438663709521
130	0x402156254ecf6a2b	8.668253386325054
131	0x402050a965985c20	8.157542395447365
132	0x402388939743234f	9.766751028962657
133	0x401e47aa22f483d5	7.569984956907281
134	0x402225b6ead29039	9.073661173060929
135	0x402225b6ead29039	9.073661173060929
136	0x401fe6af50bdefe7	7.975278150170175
137	0x402388939743234f	9.766751028962657
138	0x402050a965985c20	8.157542395447365
139	0x402388939743234f	9.766751028962657
140	0x401fe6af50bdefe7	7.975278150170175
141	0x402388939743234f	9.766751028962657
142	0x402388939743234f	9.766751028962657
143	0x402225b6ead29039	9.073661173060929
144	0x4019169b269f81e1	6.272076228604846
145	0x402050a965985c20	8.157542395447365
146	0x401fe6af50bdefe7	7.975278150170175
147	0x401fe6af50bdefe7	7.975278150170175
148	0x402225b6ead29039	9.073661173060929
149	0x402388939743234f	9.766751028962657
150	0x402156254ecf6a2b	8.668253386325054
151	0x401f48e4a99fd0a2	7.82118477857526
152	0x402225b6ead29039	9.073661173060929
153	0x401fe6af50bdefe7	7.975278150170175
154	0x401fe6af50bdefe7	7.975278150170175
155	0x402225b6ead29039	9.073661173060929
156	0x402388939743234f	9.766751028962657
157	0x402388939743234f	9.766751028962657
158	0x402225b6ead29039	9.073661173060929
159	0x402388939743234f	9.766751028962657
160	0x402156254ecf6a2b	8.668253386325054
161	0x402050a965985c20	8.157542395447365
162	0x402225b6ead29039	9.073661173060929
163	0x402388939743234f	9.766751028962657
164	0x401f48e4a99fd0a2	7.82118477857526
165	0x402225b6ead29039	9.073661173060929
166	0x402388939743234f	9.766751028962657
167	0x402388939743234f	9.766751028962657
168	0x401e47aa22f483d5	7.569984956907281
169	0x402050a965985c20	8.157542395447365
170	0x402388939743234f	9.766751028962657
171	0x402225b6ead29039	9.073661173060929
172	0x401a5c2cd9534d2a	6.5900148350804475
173	0x402388939743234f	9.766751028962657
174	0x401e47aa22f483d5	7.569984956907281
175	0x4019e3bdc0b9d866	6.472403537123773
176	0x402388939743234f	9.766751028962657
177	0x402156254ecf6a2b	8.668253386325054
178	0x402388939743234f	9.766751028962657
179	0x402388939743234f	9.766751028962657
180	0x402388939743234f	9.766751028962657
181	0x402050a965985c20	8.157542395447365
182	0x402388939743234f	9.766751028962657
183	0x4019be8f32b4f117	6.4360931322992405
184	0x401ddbd587ab0cf0	7.464681739630791
185	0x402050a965985c20	8.157542395447365
186	0x402225b6ead29039	9.073661173060929
187	0x402388939743234f	9.766751028962657
188	0x402388939743234f	9.766751028962657
189	0x401ddbd587ab0cf0	7.464681739630791
190	0x402050a965985c20	8.157542395447365
191	0x402225b6ead29039	9.073661173060929
192	0x401e47aa22f483d5	7.569984956907281
193	0x402156254ecf6a2b	8.668253386325054
194	0x402225b6ead29039	9.073661173060929
195	0x401f48e4a99fd0a2	7.82118477857526
196	0x402225b6ead29039	9.073661173060929
197	0x401bbce1a2f87f89	6.934454485337377
198	0x402225b6ead29039	9.073661173060929
199	0x402388939743234f	9.766751028962657
200	0x402388939743234f	9.766751028962657
201	0x402388939743234f	9.766751028962657
202	0x402225b6ead29039	9.073661173060929
203	0x40135509d9484a63	4.833045382535235
204	0x402225b6ead29039	9.073661173060929
205	0x402225b6ead29039	9.073661173060929
206	0x401ddbd587ab0cf0	7.464681739630791
207	0x402050a965985c20	8.157542395447365
208	0x402388939743234f	9.766751028962657
209	0x401f48e4a99fd0a2	7.82118477857526
210	0x401ec0373b3a156c	7.687710690899035
211	0x402388939743234f	9.766751028962657
212	0x402156254ecf6a2b	8.668253386325054
213	0x401c3cee5fb6aedc	7.059503074193085
214	0x402225b6ead29039	9.073661173060929
215	0x402388939743234f	9.766751028962657
216	0x401d7a4b8ec8678b	7.3694288549248865
217	0x402388939743234f	9.766751028962657
218	0x402388939743234f	9.766751028962657
219	0x402388939743234f	9.766751028962657
220	0x402225b6ead29039	9.073661173060929
221	0x402225b6ead29039	9.073661173060929
222	0x402156254ecf6a2b	8.668253386325054
223	0x402225b6ead29039	9.073661173060929
224	0x401fe6af50bdefe7	7.975278150170175
225	0x402050a965985c20	8.157542395447365
226	0x401e47aa22f483d5	7.569984956907281
227	0x402156254ecf6a2b	8.668253386325054
228	0x402156254ecf6a2b	8.668253386325054
229	0x402388939743234f	9.766751028962657
230	0x402388939743234f	9.766751028962657
231	0x402388939743234f	9.766751028962657
232	0x402388939743234f	9.766751028962657
233	0x402225b6ead29039	9.073661173060929
234	0x401f48e4a99fd0a2	7.82118477857526
235	0x402388939743234f	9.766751028962657
236	0x401fe6af50bdefe7	7.975278150170175
237	0x401e47aa22f483d5	7.569984956907281
238	0x402388939743234f	9.766751028962657
239	0x402388939743234f	9.766751028962657
240	0x401ec0373b3a156c	7.687710690899035
241	0x402225b6ead29039	9.073661173060929
242	0x402388939743234f	9.766751028962657
243	0x402388939743234f	9.766751028962657
244	0x402388939743234f	9.766751028962657
245	0x401fe6af50bdefe7	7.975278150170175
246	0x402388939743234f	9.766751028962657
247	0x401e47aa22f483d5	7.569984956907281
248	0x401bbce1a2f87f89	6.934454485337377
249	0x402388939743234f	9.766751028962657
250	0x4018bdaea32533e5	6.185236500878976
251	0x402050a965985c20	8.157542395447365
252	0x402225b6ead29039	9.073661173060929
253	0x402050a965985c20	8.157542395447365
254	0x401b8268ea37a398	6.877353343625963
255	0x402156254ecf6a2b	8.668253386325054

indices i4 [60349]
0	0x0000672f	26415
1	0x00006722	26402
2	0x0000671d	26397
3	0x00006718	26392
4	0x0000670b	26379
5	0x00006707	26375
6	0x000066f9	26361
7	0x000066f7	26359
8	0x000066ed	26349
9	0x000066e0	26336
10	0x000066df	26335
11	0x000066d0	26320
12	0x000066ce	26318
13	0x000066a4	26276
14	0x00006694	26260
15	0x0000668d	26253
16	0x00006687	26247
17	0x00006684	26244
18	0x00006682	26242
19	0x00006677	26231
20	0x00006673	26227
21	0x00006664	26212
22	0x0000665e	26206
23	0x0000665c	26204
24	0x00006655	26197
25	0x00006654	26196
26	0x00006647	26183
27	0x0000662f	26159
28	0x00006626	26150
29	0x00006622	26146
30	0x00006621	26145
31	0x0000661e	26142
32	0x0000661c	26140
33	0x00006616	26134
34	0x00006615	26133
35	0x00006611	26129
36	0x00006610	26128
37	0x0000660f	26127
38	0x00006604	26116
39	0x000065fe	26110
40	0x000065fd	26109
41	0x000065fc	26108
42	0x000065fa	26106
43	0x000065f0	26096
44	0x000065e0	26080
45	0x000065dd	26077
46	0x000065da	26074
47	0x000065d8	26072
48	0x000065d1	26065
49	0x000065cb	26059
50	0x000065c4	26052
51	0x000065af	26031
52	0x000065ae	26030
53	0x000065ad	26029
54	0x000065aa	26026
55	0x000065a7	26023
56	0x000065a4	26020
57	0x000065a0	26016
58	0x0000659d	26013
59	0x0000659c	26012
60	0x0000659b	26011
61	0x00006595	26005
62	0x0000658d	25997
63	0x00006588	25992
64	0x00006587	25991
65	0x00006585	25989
66	0x00006580	25984
67	0x0000657d	25981
68	0x00006575	25973
69	0x00006572	25970
70	0x0000656e	25966
71	0x00006567	25959
72	0x00006564	25956
73	0x00006561	25953
74	0x00006559	25945
75	0x00006554	25940
76	0x00006552	25938
77	0x00006545	25925
78	0x00006540	25920
79	0x0000653f	25919
80	0x00006539	25913
81	0x0000651c	25884
82	0x00006517	25879
83	0x00006516	25878
84	0x00006515	25877
85	0x00006512	25874
86	0x0000650c	25868
87	0x00006506	25862
88	0x00006504	25860
89	0x000064fe	25854
90	0x000064f8	25848
91	0x000064f7	25847
92	0x000064f2	25842
93	0x000064e4	25828
94	0x000064db	25819
95	0x000064da	25818
96	0x000064ce	25806
97	0x000064cb	25803
98	0x000064c6	25798
99	0x000064c5	25797
100	0x000064c3	25795
101	0x000064bb	25787
102	0x000064ba	25786
103	0x000064b9	25785
104	0x000064b8	25784
105	0x000064b3	25779
106	0x000064ad	25773
107	0x000064a7	25767
108	0x0000649f	25759
109	0x0000649e	25758
110	0x00006497	25751
111	0x00006491	25745
112	0x0000648f	25743
113	0x0000648e	25742
114	0x00006488	25736
115	0x00006484	25732
116	0x0000647d	25725
117	0x0000647a	25722
118	0x00006475	25717
119	0x00006474	25716
120	0x00006472	25714
121	0x0000646f	25711
122	0x0000646e	25710
123	0x00006468	25704
124	0x00006467	25703
125	0x0000645e	25694
126	0x0000645d	25693
127	0x00006458	25688
128	0x0000644e	25678
129	0x0000644c	25676
130	0x00006435	25653
131	0x0000642d	25645
132	0x0000642c	25644
133	0x0000642a	25642
134	0x00006427	25639
135	0x00006421	25633
136	0x0000641e	25630
137	0x0000641b	25627
138	0x0000641a	25626
139	0x00006419	25625
140	0x00006411	25617
141	0x00006408	25608
142	0x00006403	25603
143	0x00006400	25600
144	0x000063fa	25594
145	0x000063e5	25573
146	0x000063e4	25572
147	0x000063e3	25571
148	0x000063df	25567
149	0x000063d4	25556
150	0x000063cd	25549
151	0x000063cc	25548
152	0x000063ca	25546
153	0x000063c4	25540
154	0x000063c1	25537
155	0x000063bf	25535
156	0x000063bc	25532
157	0x000063b2	25522
158	0x000063b1	25521
159	0x000063ae	25518
160	0x000063a5	25509
161	0x000063a4	25508
162	0x0000639e	25502
163	0x0000639b	25499
164	0x00006388	25480
165	0x00006387	25479
166	0x00006385	25477
167	0x00006382	25474
168	0x0000637a	25466
169	0x00006377	25463
170	0x00006376	25462
171	0x0000636b	25451
172	0x0000636a	25450
173	0x00006367	25447
174	0x0000635c	25436
175	0x00006359	25433
176	0x00006347	25415
177	0x00006341	25409
178	0x00006340	25408
179	0x0000633d	25405
180	0x0000633a	25402
181	0x00006339	25401
182	0x00006338	25400
183	0x00006335	25397
184	0x00006334	25396
185	0x0000632f	25391
186	0x0000632c	25388
187	0x0000631c	25372
188	0x00006314	25364
189	0x0000630f	25359
190	0x0000630e	25358
191	0x0000630d	25357
192	0x0000630a	25354
193	0x00006308	25352
194	0x000062fd	25341
195	0x000062f9	25337
196	0x000062e0	25312
197	0x000062d5	25301
198	0x000062d4	25300
199	0x000062d3	25299
200	0x000062d1	25297
201	0x000062cd	25293
202	0x000062c7	25287
203	0x000062bf	25279
204	0x000062a6	25254
205	0x000062a3	25251
206	0x00006297	25239
207	0x0000628e	25230
208	0x0000628d	25229
209	0x00006287	25223
210	0x00006283	25219
211	0x00006273	25203
212	0x0000625c	25180
213	0x00006256	25174
214	0x00006250	25168
215	0x0000624e	25166
216	0x00006249	25161
217	0x0000623a	25146
218	0x00006239	25145
219	0x00006237	25143
220	0x00006236	25142
221	0x0000622d	25133
222	0x0000622b	25131
223	0x00006226	25126
224	0x00006214	25108
225	0x00006205	25093
226	0x00006202	25090
227	0x000061f9	25081
228	0x000061f8	25080
229	0x000061ee	25070
230	0x000061e9	25065
231	0x000061cd	25037
232	0x000061c6	25030
233	0x000061c5	25029
234	0x000061c2	25026
235	0x000061b8	25016
236	0x000061aa	25002
237	0x000061a9	25001
238	0x0000619e	24990
239	0x00006194	24980
240	0x00006187	24967
241	0x00006183	24963
242	0x0000617f	24959
243	0x00006178	24952
244	0x00006164	24932
245	0x00006163	24931
246	0x00006153	24915
247	0x00006150	24912
248	0x0000614f	24911
249	0x0000613e	24894
250	0x0000612a	24874
251	0x00006126	24870
252	0x00006125	24869
253	0x00006122	24866
254	0x00006118	24856
255	0x00006117	24855

indptr i4 [18]
0	0x00000000	0
1	0x00000f15	3861
2	0x00004d11	19729
3	0x000084a9	33961
4	0x000093b6	37814
5	0x0000a3f5	41973
6	0x0000af18	44824
7	0x0000bb7d	47997
8	0x0000c49a	50330
9	0x0000caff	51967
10	0x0000d161	53601
11	0x0000d705	55045
12	0x0000dc7b	56443
13	0x0000df87	57223
14	0x0000e2d8	58072
15	0x0000e639	58937
16	0x0000e9b4	59828
17	0x0000ebbd	60349
