embed_paraphrase-multilingual-mpnet-base-v2_umap_15_10_hdbscan_80_10_safetensors/topic_embeddings.safetensors (safetensors, 26200 bytes, 1 tensors)

topic_embeddings f4 [17, 384]
0	0xbd2b03c3	-0.041751634
1	0x3d83c060	0.06433177
2	0x3caa934f	0.020822195
3	0xbcd7ddf7	-0.026350958
4	0x3e94c915	0.29059663
5	0x3a9a8d7b	0.0011791432
6	0x3dd84d31	0.10561598
7	0x3d92dde5	0.07171229
8	0xbc761191	-0.015018837
9	0xbb9681bc	-0.0045931023
10	0x3e2536b7	0.16134153
11	0x3d35597a	0.044274785
12	0xbdf9fe15	-0.122066654
13	0x3e064388	0.13111699
14	0xbc948e05	-0.018134126
15	0xbd2575da	-0.040395595
16	0x3d98190b	0.074266516
17	0xbdd3f21e	-0.103489146
18	0x3de37a1f	0.11107277
19	0x3db92bab	0.09041532
20	0x3dbfe59b	0.09369966
21	0x3e1f9a80	0.15586281
22	0x3e48cd13	0.1960948
23	0x3da1db25	0.079031266
24	0xbddce2bc	-0.10785434
25	0x3d93140c	0.07181558
26	0xbe28544b	-0.16438405
27	0xbd8bd387	-0.06827455
28	0xbd5afd2a	-0.053464092
29	0xbd1c2507	-0.03812125
30	0x3cd16c63	0.025564378
31	0x3e24381e	0.16037032
32	0xbe463493	-0.19355993
33	0xbda3d899	-0.08000297
34	0x3d94466f	0.07239997
35	0xbe05e61a	-0.13076058
36	0xbcb0c930	-0.021580309
37	0xbd1b5cf5	-0.037930448
38	0x3d383efb	0.044981938
39	0x3d001336	0.03126832
40	0x3cb478bc	0.022030227
41	0xbdb71b8a	-0.089407995
42	0x3cd1877f	0.025577305
43	0x3d88c82f	0.06678807
44	0xbe60a82c	-0.21939152
45	0xbcdf475b	-0.027255705
46	0x3d826465	0.06366805
47	0xbcd28c93	-0.025701797
48	0xbd8090f7	-0.0627765
49	0xbe6c19eb	-0.23056762
50	0x3e0ab6c4	0.13546282
51	0xbe271fcc	-0.16320723
52	0xbd5dbeb5	-0.05413695
53	0xbe10a2d1	-0.1412461
54	0x3e09c4ea	0.13454023
55	0xbeabd3a6	-0.33559912
56	0x3dac9d7c	0.08428475
57	0xbc93b3b1	-0.01803002
58	0xbe0175c6	-0.12642583
59	0x3dffaa43	0.12483647
60	0xbcffb063	-0.031212037
61	0x3d8fafc8	0.070159495
62	0xbd3430fe	-0.043992035
63	0x394c3466	0.00019474476
64	0x3d6646c5	0.056219835
65	0xbde9aa19	-0.11409397
66	0x3dc8cb1d	0.09804366
67	0x3c1ed68e	0.0096947085
68	0x3d3a760e	0.045522742
69	0x3e1f0631	0.15529706
70	0x3db30fab	0.08743223
71	0xbd4f8094	-0.05065973
72	0x3d82c468	0.06385118
73	0x3b04f288	0.0020286161
74	0xbc36a967	-0.011148787
75	0x3e29c00e	0.1657717
76	0x3d4e956b	0.050435465
77	0xbcda4bf9	-0.026647555
78	0x3e187bcf	0.14890979
79	0xbe44ca1e	-0.19217727
80	0xbd00b817	-0.03142556
81	0xbddb3914	-0.10704246
82	0x3ac5d47a	0.001509323
83	0x3d24838f	0.040164527
84	0xbbfd538e	-0.0077309078
85	0x3d7c4208	0.06158641
86	0xbcba0c88	-0.022711053
87	0x3d35c833	0.044380378
88	0x3e271833	0.16317825
89	0x3d7a7c4e	0.061153702
90	0x3d4d4ec8	0.05012396
91	0xbde778dd	-0.1130235
92	0x3e15efe6	0.14642295
93	0xbe1727e8	-0.14761317
94	0x3d0cc876	0.034370862
95	0x3e88060d	0.26567116
96	0x3d6b2f23	0.057418
97	0xbde06dd1	-0.10958446
98	0xbd2a8218	-0.041627973
99	0x3dab56f2	0.08366193
100	0xbe2a57ff	-0.1663513
101	0xbde7290d	-0.11287127
102	0xbe62d202	-0.22150424
103	0xbe24046c	-0.16017312
104	0xbc92ce90	-0.017920762
105	0xbd90d4e8	-0.07071859
106	0xbda99d67	-0.08281975
107	0xbe4cbc55	-0.19993718
108	0x3dcbe08c	0.09954938
109	0x3db44182	0.08801557
110	0xbc4f3353	-0.012646514
111	0xbd0d22a1	-0.034456853
112	0x3c5369d3	0.012903648
113	0xbe30b046	-0.17254743
114	0xbcf79fba	-0.03022753
115	0xbdeed14e	-0.116610155
116	0x3c64a95a	0.013956392
117	0xbe5683d4	-0.20948726
118	0xbd9ddb51	-0.07707847
119	0x3c46d06e	0.012134654
120	0xbc9a98aa	-0.018871624
121	0xbdce4a82	-0.10072805
122	0x3de9210d	0.11383257
123	0xbce0593c	-0.0273863
124	0x3e1afb09	0.15134825
125	0x3d31acdd	0.043377746
126	0xbd7a87df	-0.061164733
127	0x3df43772	0.11924638
128	0xbd4be099	-0.04977474
129	0x3cbfcb69	0.023412423
130	0x3dfa77a4	0.12229851
131	0xbe14df3d	-0.14538284
132	0xbdf27e7e	-0.11840533
133	0xbaae8e89	-0.0013317625
134	0xbdbfa11b	-0.093569
135	0xbcda37bb	-0.026637902
136	0x3df08f9c	0.11746141
137	0xbda9fcc9	-0.08300168
138	0x3ca714ba	0.020395625
139	0x3d2eabd7	0.042644348
140	0xbdc25561	-0.09488941
141	0x3dc7646e	0.09735952
142	0x3dbf0191	0.09326471
143	0x3d513619	0.051076982
144	0xbd52eaf9	-0.05149362
145	0x3d2a8c24	0.041637555
146	0x3e20b0ac	0.15692395
147	0xbda5d308	-0.08096892
148	0xbdc60718	-0.09669322
149	0xbd616a10	-0.05503279
150	0x3de12265	0.10992888
151	0xbc735c8f	-0.014853611
152	0x3d62a168	0.05532971
153	0x3d6d885c	0.05799137
154	0x3d11cee1	0.035597686
155	0xbcafa1fa	-0.021439541
156	0x3d8e1690	0.06937897
157	0x3d301ae5	0.0429944
158	0x3e830fe6	0.25598067
159	0x3d64b674	0.055838063
160	0xbe28d43f	-0.16487215
161	0x3da98866	0.08277969
162	0x3d7c7217	0.061632242
163	0x3d9bef1e	0.07613967
164	0xbd79be45	-0.06097247
165	0xbd6006b3	-0.05469389
166	0xbe163a28	-0.14670622
167	0xbe1c7765	-0.1527992
168	0x3cac71b6	0.021050315
169	0x3e0535f4	0.13008863
170	0x3ded180c	0.11576852
171	0xbe144aa3	-0.14481597
172	0x3de7d396	0.11319654
173	0xbdf7e19f	-0.12103581
174	0xbe5b9662	-0.21444085
175	0x3cce8c7d	0.025213474
176	0xbe173a85	-0.14768417
177	0x3b26a84a	0.0025429898
178	0x3d3cee13	0.046125483
179	0x3d1146db	0.035467964
180	0x3e0601bb	0.13086598
181	0xbda8b23c	-0.082371205
182	0xbd685c72	-0.056728788
183	0x3de37bd5	0.111076035
184	0xbc8a1426	-0.01685531
185	0xbe285c06	-0.16441354
186	0xbd8c3915	-0.06846825
187	0xbcfb5031	-0.030677887
188	0xbdc8a5ed	-0.09797273
189	0x3cc07875	0.023494938
190	0xbe6233a5	-0.22090013
191	0xbd000a75	-0.031259973
192	0x3e074adf	0.13212155
193	0x3e0f0914	0.13968307
194	0xbe1981b1	-0.1499088
195	0xbd73f91d	-0.059563745
196	0xbde46485	-0.11151985
197	0x3e0b77b7	0.13619886
198	0x3dc4a3a4	0.096015245
199	0x3a1facf3	0.000609114
200	0xbd032678	-0.03201911
201	0xbc345985	-0.011007671
202	0xbd9870e7	-0.074434094
203	0xbcb9701b	-0.022636464
204	0xbd157d39	-0.036496375
205	0xbd838ef3	-0.0642375
206	0x3dcb8efc	0.099393815
207	0xbdf7a8fa	-0.120927766
208	0x3df8dc13	0.12151351
209	0xbe0baff5	-0.13641341
210	0xbd125ba7	-0.035731938
211	0x3d510f71	0.051040117
212	0xbde4c344	-0.111700565
213	0xbdd1bfc9	-0.10241658
214	0x3d04b62d	0.0324003
215	0x3d202e6b	0.039106768
216	0x3d1e17a7	0.038596775
217	0x3e0be527	0.13661633
218	0x3dc4cd73	0.09609499
219	0xbb1503e9	-0.0022737926
220	0x3d84964c	0.06473979
221	0xbd9a85e0	-0.07545066
222	0xbc40476a	-0.011735776
223	0xbe4b3b33	-0.19846801
224	0xbe50d7ca	-0.20394817
225	0xbd385ce6	-0.04501047
226	0xbc9f4370	-0.019441336
227	0x3de4e9f6	0.11177437
228	0xbd2a7502	-0.041615494
229	0x3e0f8c90	0.14018464
230	0xbe29256e	-0.16518185
231	0xbd17a8f6	-0.037026368
232	0x3d6ca198	0.057771295
233	0x3c565e7b	0.013084049
234	0xbdfad993	-0.1224853
235	0x3d3404ba	0.04394982
236	0x3d859938	0.06523365
237	0x3d93bf6d	0.07214246
238	0xbd4f7f33	-0.050658416
239	0x3dac14f2	0.084024325
240	0xbdb6d59f	-0.08927464
241	0x3c9ff813	0.01952747
242	0xbba1cba5	-0.0049376064
243	0x3d09bdeb	0.033628386
244	0xbdfa1434	-0.12210885
245	0x3db27546	0.087137744
246	0xbcda08e8	-0.026615575
247	0x3e1b17f4	0.15145856
248	0xbe230dd3	-0.15923242
249	0x3e39c555	0.18141682
250	0xbe0d2bac	-0.13786191
251	0xbdd90e35	-0.10598413
252	0x3d8d0a1f	0.06886696
253	0xbd982660	-0.074291945
254	0x3e0ae652	0.13564423
255	0x3de10f4f	0.10989248
