embed_paraphrase-multilingual-MiniLM-L12-v2_umap_15_10_hdbscan_80_10_safetensors_2/topic_embeddings.safetensors (safetensors, 33880 bytes, 1 tensors)

topic_embeddings f4 [22, 384]
0	0xbd878eff	-0.06619071
1	0x3dba93fd	0.09110258
2	0x3d6f37ee	0.058402948
3	0xbd3dae86	-0.046309017
4	0x3e8da137	0.2766206
5	0xbd9c008e	-0.07617293
6	0x3dae0c10	0.084983945
7	0x3d03dfdb	0.032195907
8	0xbd7f0728	-0.062262684
9	0x3a5460b4	0.0008101568
10	0x3db5a8b9	0.08870072
11	0x3d7ba958	0.061440796
12	0xbdec0a62	-0.11525418
13	0x3de51b97	0.11186903
14	0xbcd6a3d8	-0.026201174
15	0xbda4d660	-0.08048701
16	0x3d033ac0	0.03203845
17	0xbdaf0d3a	-0.08547445
18	0x3d510800	0.05103302
19	0x3ddb71ca	0.10715063
20	0x3e013b2d	0.1262023
21	0x3e2e1730	0.17001033
22	0x3e2ead7b	0.17058365
23	0x3dec8917	0.11549585
24	0xbd5ed64b	-0.054403584
25	0x3cb9f237	0.022698505
26	0xbe0d2c9e	-0.13786551
27	0xbd783791	-0.060599867
28	0xbcbbce7b	-0.022925606
29	0xbda95c17	-0.08269518
30	0x3bf23398	0.0073914044
31	0x3e165df7	0.14684282
32	0xbe37d0f3	-0.17950802
33	0xbdac1a74	-0.08403483
34	0x3dade21c	0.084903926
35	0x3c2804b0	0.010255024
36	0xbd17b404	-0.03703691
37	0xbd5a41a6	-0.053285263
38	0x3c8beaf2	0.017079804
39	0x3bc112b9	0.0058921245
40	0xbc10d430	-0.008839652
41	0xbde21a9a	-0.1104023
42	0x3ce0194f	0.027355818
43	0x3d9942c9	0.074834414
44	0xbe3fac7b	-0.1871814
45	0xbd20f7d7	-0.03929886
46	0x3e02e9a5	0.12784441
47	0xbc09e7c9	-0.008417078
48	0xbe014a0c	-0.12625903
49	0xbe3d7660	-0.18502188
50	0x3d874d97	0.06606596
51	0xbe24a439	-0.16078271
52	0xbdb1eeb4	-0.08688107
53	0xbe4737f7	-0.19454943
54	0x3dd8808d	0.10571394
55	0xbe98d400	-0.29849243
56	0x3d93ddbf	0.07220029
57	0xbd12df72	-0.035857625
58	0xbd434939	-0.047677252
59	0x3dbd8408	0.092536986
60	0xbc3a90b1	-0.011387036
61	0x3dc22e1e	0.094814524
62	0xbcbef62a	-0.02331074
63	0x3ca554e0	0.020182073
64	0x3d85a173	0.065249346
65	0xbdcaf2df	-0.09909605
66	0x3de28868	0.11061174
67	0x3caee199	0.021347808
68	0x3cb5438c	0.022126935
69	0x3e60b13f	0.21942614
70	0x3d7046b2	0.05866117
71	0xbd47e18e	-0.04879909
72	0x3d24882a	0.04016892
73	0x3c4b005e	0.012390224
74	0x3ab60977	0.0013888319
75	0x3e1cbb87	0.15305911
76	0x3d73fc21	0.05956662
77	0x3cdc5b32	0.026898954
78	0x3df976e0	0.12180877
79	0xbe490164	-0.19629437
80	0x3b2c84b0	0.0026324205
81	0xbdb24d72	-0.08706178
82	0x3d131bb4	0.03591509
83	0x3cf1d56e	0.029520717
84	0xbdb6e668	-0.08930665
85	0x3d4355b8	0.04768917
86	0xbd19da32	-0.037561603
87	0x3d22763a	0.03966353
88	0x3e45caa6	0.19315585
89	0x3b7a33f5	0.0038177941
90	0x3da14464	0.078743726
91	0xbe02442a	-0.12721315
92	0x3e0e6035	0.13903888
93	0xbe288186	-0.1645566
94	0x3cd78486	0.02630831
95	0x3e75c3aa	0.24000421
96	0x3dabf841	0.0839696
97	0xbe0e3fbb	-0.13891499
98	0xbb3e0054	-0.0028991895
99	0x3d2ad846	0.04171016
100	0xbe47d4ec	-0.19514817
101	0xbdac9517	-0.08426874
102	0xbe05a31b	-0.13050501
103	0xbe02849a	-0.12745896
104	0xbd4fcb7b	-0.050731163
105	0xbde66b72	-0.11250962
106	0xbda65407	-0.08121496
107	0xbdff482a	-0.12464936
108	0x3e14e673	0.14541034
109	0x3d27a0cd	0.040924836
110	0xbc573c9c	-0.013137009
111	0x3ca533a0	0.020166218
112	0x3d89d078	0.067292154
113	0xbdec8a19	-0.115497775
114	0xbd7d9acb	-0.0619152
115	0xbdb6e898	-0.089310825
116	0x3c3d1bc2	0.0115422625
117	0xbe4331e0	-0.19061995
118	0xbde1e913	-0.110307835
119	0xba38ebf3	-0.0007054202
120	0xb930b2ad	-0.0001685123
121	0xbddccb65	-0.10780982
122	0x3df9395a	0.12169142
123	0xbc913e59	-0.017729925
124	0x3e0149cc	0.12625808
125	0x3d50d596	0.05098494
126	0xbd6fe232	-0.058565326
127	0x3d9f78c5	0.07786707
128	0x3c0a9588	0.008458503
129	0x3c8f29eb	0.017476043
130	0x3e14bbd1	0.14524771
131	0xbe4f1e06	-0.20226297
132	0xbdf2d01b	-0.11856099
133	0xbd1393f5	-0.036029775
134	0xbd889393	-0.066687725
135	0xbddf4a4a	-0.109028414
136	0x3d9aceec	0.075589985
137	0xbd653d47	-0.05596664
138	0x3d663606	0.056203865
139	0x3d25b615	0.04045685
140	0xbd827641	-0.063702114
141	0x3e0c1dd8	0.1368326
142	0x3db5a53d	0.08869407
143	0x3d4802f9	0.04883096
144	0x3bbbb2f5	0.0057281204
145	0x3d9e1921	0.07719637
146	0x3e25c796	0.16189417
147	0xbda35f68	-0.07977182
148	0xbd607b85	-0.054805297
149	0xbd8eb988	-0.06968981
150	0x3e0133c5	0.12617405
151	0x3c3115b4	0.010808397
152	0x3c504972	0.012712823
153	0x3cdc783b	0.0269128
154	0x3ccbc3c1	0.024873616
155	0xbd718772	-0.05896706
156	0x3d1962b5	0.03744765
157	0xbca9ef0b	-0.020743867
158	0x3e426936	0.18985447
159	0x3da0fc9b	0.07860681
160	0xbe37f817	-0.17965733
161	0x3db36328	0.08759147
162	0x3d55291c	0.052041158
163	0x3d824150	0.063601136
164	0xbddd08ad	-0.107926704
165	0x3bc27d3c	0.0059353393
166	0xbe0adbf3	-0.13560466
167	0xbdf5e2a5	-0.1200612
168	0x3d91f19c	0.071261615
169	0x3dd7c8c0	0.10536337
170	0x3e02c122	0.12768987
171	0xbe112a83	-0.14176373
172	0x3e01d700	0.12679672
173	0xbe1c8f7b	-0.15289108
174	0xbe1709dd	-0.14749856
175	0xbc90f373	-0.01769421
176	0xbe2f0c59	-0.17094554
177	0x3cb3cf4a	0.021949429
178	0x3d7b3de5	0.061338324
179	0x3da9f3bc	0.08298442
180	0x3dd5cb41	0.10439158
181	0xbd9e86b5	-0.07740537
182	0xbbaf69aa	-0.0053531723
183	0x3deed249	0.116612025
184	0xbbb46886	-0.005505624
185	0xbe286d04	-0.16447836
186	0xbc71f0d9	-0.014766895
187	0xbce837ab	-0.028346857
188	0xbdda1c06	-0.10649876
189	0x3d8ef033	0.06979408
190	0xbe548feb	-0.20758025
191	0xbc7e6a40	-0.015528262
192	0x3d9e63dd	0.07733891
193	0x3dece71c	0.11567518
194	0xbe19085f	-0.149446
195	0xbd9d55f8	-0.07682413
196	0xbdd8e7c2	-0.10591079
197	0x3e1a923d	0.15094848
198	0x3de64d77	0.11245244
199	0xbcaf503c	-0.021400563
200	0xbd9a2279	-0.075261064
201	0x3c1e4870	0.009660825
202	0xbdc49217	-0.09598177
203	0xbb2c6eb4	-0.0026311101
204	0xbba4ef6d	-0.0050334246
205	0xbd76829a	-0.060183145
206	0x3dddd0d6	0.10830848
207	0xbe3466c6	-0.1761733
208	0x3dade9eb	0.08491882
209	0xbdaeff58	-0.08544797
210	0xbd80fa2c	-0.062977165
211	0x3c7eadc9	0.015544363
212	0xbe1790a0	-0.14801264
213	0xbce49c41	-0.027906539
214	0x3cba535b	0.022744825
215	0x3ce6ac29	0.028158264
216	0x3dc64bce	0.09682427
217	0x3e281604	0.16414648
218	0x3d869faf	0.06573426
219	0xbbb83d6b	-0.005622556
220	0x3cb67a21	0.022275032
221	0xbddab8ee	-0.10679804
222	0xbccc54ff	-0.024942873
223	0xbe4af75c	-0.19820923
224	0xbe0ce5df	-0.13759564
225	0xbd4869a5	-0.048928875
226	0xbba27744	-0.004958065
227	0x3e20bd3b	0.15697186
228	0xbd87ed26	-0.06637029
229	0x3dbd1802	0.09233095
230	0xbdb47069	-0.08810503
231	0xbd8fd390	-0.07022774
232	0x3d4690ae	0.04847782
233	0x3bc169ba	0.005902496
234	0xbdd59696	-0.104291126
235	0x3d9ddd7e	0.07708262
236	0x3dff8837	0.12477153
237	0x3cca7ff2	0.024719212
238	0xbd1ba3e4	-0.037998095
239	0x3db75b55	0.08952967
240	0xbd9cba0e	-0.076526746
241	0x3c5592e5	0.013035511
242	0xbcbca9e7	-0.023030235
243	0x3c815c84	0.015791185
244	0xbda1b2ad	-0.07895408
245	0x3dafec5a	0.08590002
246	0xbcbf02ee	-0.023316827
247	0x3e0f143c	0.13972563
248	0xbe304e0a	-0.1721727
249	0x3e2e2060	0.17004538
250	0xbe2606c5	-0.1621352
251	0xbd86012d	-0.06543193
252	0x3d022452	0.03177292
253	0xbde0da65	-0.109791555
254	0x3db9b58e	0.09067832
255	0x3e1173fa	0.14204398
